egfx_model_notebook.pt (torch, 146731 bytes, 24 tensors)

weight f4 [32, 1, 9]
0.0008772093 0.14553304 -0.1099143 0.17429803 -0.25214827 -0.122912705 0.13256906 -0.33281514
0.16900152 0.2809392 -0.31368282 -0.0019348079 0.08787853 -0.020282723 0.017218262 0.22600788
-0.027834285 0.022026796 0.09673164 -0.23374377 -0.03519504 0.3516043 -0.28601387 0.24060056
-0.07289779 -0.22016086 0.21661042 0.20229952 0.1021506 0.2707468 0.32506752 0.047797434
-0.019661369 -0.29081336 -0.15985422 0.2161089 0.18447553 -0.1632337 -0.30065656 0.020443976
0.14539437 0.12552202 -0.17492872 0.064156316 0.31040862 0.09958963 0.17005724 -0.066555925
-0.17997333 -0.36678156 0.08932614 0.16122732 -0.2150219 0.18161999 0.137744 0.043034036
-0.29762337 -0.19363542 -0.14419796 0.09908471 -0.08709301 0.11514449 -0.3224274 -0.116253495
0.16354527 0.015051522 -0.2709305 -0.3243699 0.16332795 0.1442033 -0.27227747 0.15980884
0.32632005 -0.13679013 0.0037158648 0.039619688 0.21327692 0.097456045 0.19209945 0.10657008
-0.122690834 0.11900744 -0.12571293 0.15447089 -0.02767356 -0.026277065 -0.2592642 0.3160208
0.3232704 -0.22015382 0.061795898 0.065996386 0.09260359 -0.1326948 0.25936568 0.11445955
0.28692102 0.030208282 -0.14283544 -0.088614024 -0.32532108 0.32011223 -0.25644153 -0.043479994
-0.09186355 -0.2631193 -0.23200151 -0.16182303 -0.30276757 0.17484546 -0.095160104 0.15249123
0.06666314 0.33015487 0.17789964 -0.2208125 -0.1457448 -0.22783984 -0.17483416 -0.15804239
-0.010216721 0.0102807 0.29335713 0.15461023 0.19295672 0.07626462 0.027425444 -0.14342877
0.14111795 -0.21044298 -0.2766143 0.07422555 -0.30246276 -0.07826728 0.21921127 -0.14739014
-0.26703364 -0.22165757 0.25569674 -0.24877161 0.18470314 -0.07469423 -0.24162515 -0.30708405
0.26014102 0.05408267 -0.13990846 -0.23396762 -0.06805639 0.27877152 -0.20340556 0.29019973
-0.12729654 -0.18433888 -0.058190238 0.19838847 0.19709376 0.1458589 -0.32207903 -0.2579062
-0.13263124 -0.035431135 -0.23031786 -0.06291598 -0.17830518 0.1808245 0.27807572 0.1819442
0.021497346 -0.12274843 -0.23272553 -0.021668952 0.18158576 -0.0039581945 0.0072919424 -0.15345804
-0.13186322 -0.3136507 0.05077191 0.09056172 -0.218845 0.042951185 -0.18631223 0.2445844
0.24838476 -0.37250695 -0.081262514 0.17647567 0.19036113 0.23297003 0.32484674 0.0539998
0.1031835 0.15415739 -0.26069266 0.1264081 -0.018089885 -0.042472564 0.25353935 0.1396119
0.036863655 0.10615469 0.29819995 -0.25941798 0.1377975 -0.16627431 0.2563856 -0.0876899
0.08433111 -0.19448109 -0.20438175 -0.24985616 0.21008481 -0.16168758 -0.21138802 0.1895912
0.17183357 -0.32519308 -0.29316708 0.1457715 0.14669737 -0.08101267 0.1563486 0.09365674
0.027065163 0.32972488 -0.17683801 0.3763985 -0.19073763 -0.03920563 -0.22548565 0.19937812
0.13513407 0.2126398 -0.1958911 -0.046861388 0.02271049 -0.025269821 0.084480084 -0.20739858
0.21622826 -0.25826097 0.29752532 0.2802982 0.012945286 -0.03398709 0.32409763 0.15239978
-0.00450718 -0.10641479 0.0044158236 -0.09299649 0.16212995 0.072978936 0.088500604 -0.2782007
00000000: 85f4 653a 9d06 153e c01a e1bd 2f7b 323e
00000010: 9419 81be a8b9 fbbd 2fc0 073e bf66 aabe
00000020: bc0e 2d3e 43d7 8f3e 099b a0be 6199 fdba
00000030: a9f9 b33d f427 a6bc 500d 8d3c 9c6e 673e
00000040: ba04 e4bc 8a71 b43c 3d1b c63d 875a 6fbe
00000050: ad28 10bd 7b05 b43e 6970 92be fe5f 763e
00000060: 704b 95bd d971 61be 1fcf 5d3e 9b27 4f3e
00000070: 5534 d13d 539f 8a3e 406f a63e 3ec7 433d
00000080: e110 a1bc 7de5 94be d3b0 23be a74b 5d3e
00000090: 27e7 3c3e bc26 27be a8ef 99be 207a a73c
000000a0: 43e2 143e d888 003e 8420 33be 6364 833d
000000b0: e1ed 9e3e a6f5 cb3d 7c23 2e3e 794e 88bd
000000c0: ee4a 38be cbca bbbe a0f0 b63d c618 253e
000000d0: b32e 5cbe 97fa 393e c30c 0d3e 7544 303d
000000e0: 1762 98be 5d48 46be a1a8 13be edec ca3d
000000f0: d25d b2bd e0d0 eb3d 3415 a5be 5016 eebd
00000100: 6978 273e a99a 763c 67b7 8abe d013 a6be
00000110: 713f 273e 08aa 133e f467 8bbe eea4 233e
00000120: 6c13 a73e b612 0cbe de85 733b 4148 223d
00000130: 4465 5a3e 0997 c73d b8b5 443e 6a41 da3d
00000140: 5545 fbbd 2cba f33d e4ba 00be 9e2d 1e3e
00000150: a9b3 e2bc 0043 d7bc 47be 84be 7acd a13e
00000160: b383 a53e 0170 61be b21d 7d3d 1d29 873d
00000170: f3a6 bd3d 25e1 07be 94cb 843e c569 ea3d
00000180: 50e7 923e 5c77 f73c 7443 12be 457b b5bd
00000190: 7c90 a6be c0e5 a33e 4e4c 83be 1418 32bd
000001a0: f522 bcbd 93b7 86be ce91 6dbe f0b4 25be
000001b0: 5a04 9bbe b00a 333e 4de3 c2bd a926 1c3e
000001c0: af86 883d 0f0a a93e 532b 363e ac1c 62be
000001d0: 203e 15be d94e 69be ba07 33be ddd5 21be
000001e0: 0964 27bc 6270 283c e832 963e 2552 1e3e
000001f0: 7296 453e a030 9c3d 53ab e03c fede 12be
00000200: 3981 103e 5d7e 57be 64a0 8dbe 9103 983d
00000210: 66dc 9abe 984a a0bd eb78 603e 71ed 16be
00000220: a2b8 88be 34fa 62be afea 823e fcbd 7ebe
00000230: d222 3d3e 4af9 98bd 956c 77be 1f3a 9dbe
00000240: 3431 853e ca85 5d3d 2a44 0fbe 3595 6fbe
00000250: 2661 8bbd 24bb 8e3e 8c49 50be 0f95 943e
00000260: 065a 02be 55c3 3cbe e358 6ebd 5926 4b3e
00000270: f2d2 493e 095c 153e 8be7 a4be 480c 84be
00000280: 7cd0 07be 3d20 11bd 72d8 6bbe 18da 80bd
00000290: a295 36be 0f2a 393e f15f 8e3e 954f 3a3e
000002a0: 341b b03c 8763 fbbd 9a4f 6ebe 1683 b1bc
000002b0: 9ef1 393e beb3 81bb 3ff1 ee3b 1b24 1dbe
000002c0: 2707 07be d396 a0be 35f6 4f3d 6c78 b93d
000002d0: e718 60be 95ed 2f3d a2c8 3ebe 5574 7a3e
000002e0: 9358 7e3e 3bb9 bebe f66c a6bd 0ab6 343e
000002f0: 07ee 423e b28f 6e3e 5052 a63e e52e 5d3d
00000300: df51 d33d 6fdb 1d3e 8279 85be 2071 013e
00000310: 3d31 94bc b6f7 2dbd e9cf 813e 6cf6 0e3e
00000320: 58fe 163d a167 d93d aaad 983e 6fd2 84be
00000330: ca1a 0d3e d043 2abe f944 833e c396 b3bd
00000340: cab5 ac3d 0d26 47be 7349 51be 4bda 7fbe
00000350: 7920 573e 6e91 25be 1a76 58be 3224 423e
00000360: 24f5 2f3e b57f a6be ff19 96be 2045 153e
00000370: d637 163e f9e9 a5bd d919 203e 1bcf bf3d
00000380: c3b7 dd3c b3d1 a83e 0615 35be 4eb7 c03e
00000390: ba50 43be 1596 20bd b6e5 66be c729 4c3e
000003a0: 9660 0a3e 3fbe 593e ad97 48be baf1 3fbd
000003b0: 590b ba3c a802 cfbc e503 ad3d 4b60 54be
000003c0: f16a 5d3e c83a 84be 3d55 983e 3f83 8f3e
000003d0: 7718 543c 0c36 0bbd 20f0 a53e b00e 1c3e
000003e0: f7b0 93bb ffef d9bd 9db2 903b f274 bebd
000003f0: 6505 263e fb75 953d ce3f b53d 5270 8ebe

bias f4 [32]
0.14915499 0.3578422 -0.013437381 0.11186759 0.1443493 -0.29452366 0.17623986 -0.054341853
-0.07418441 -0.2527798 0.009772688 0.04379002 0.24836133 0.23087297 -0.27148715 0.31168687
-0.022614487 0.09941582 -0.20127544 -0.04938466 0.18025264 0.09171496 0.17937282 -0.019804576
-0.27866998 0.12707332 -0.14856209 0.1650773 0.07454167 -0.24961285 0.23042318 0.24651252
00000000: 16bc 183e 1837 b73e 7628 5cbc d61a e53d
00000010: 4ed0 133e cecb 96be 3978 343e 9095 5ebd
00000020: ffed 97bd 5b6c 81be a01d 203c 2a5d 333d
00000030: 6f52 7e3e f769 6c3e 5d00 8bbe 6c95 9f3e
00000040: 0442 b9bc 859a cb3d 261b 4ebe 9247 4abd
00000050: 2694 383e 0ed5 bb3d 82ad 373e 353d a2bc
00000060: d5ad 8ebe 821f 023e a920 18be 060a 293e
00000070: 4ea9 983d 839a 7fbe 0ef4 6b3e c76d 7c3e

weight f4 [64, 2]
-0.3349824 -0.008630495 0.44653347 0.55429494 -0.4638055 -0.06461744 -0.623616 0.33486733
-0.5500913 -0.5720268 -0.6493993 -0.6192497 0.6936312 -0.5705817 -0.483417 0.16784367
0.2686103 0.10541753 -0.29049066 0.5114053 0.20129386 0.25074846 -0.56710225 0.6254622
0.39143902 -0.55447227 0.6260096 -0.31323555 -0.29102102 0.5559549 0.54792124 -0.16511811
0.0031799797 -0.06924744 -0.05820488 -0.038509574 0.28656122 -0.074108906 0.7063941 -0.5012212
-0.13055862 0.5160293 0.6648757 -0.30413604 -0.27052703 0.35521895 -0.49574807 -0.22142883
0.033746812 -0.0042346623 -0.2131463 0.4327362 0.70591146 0.2527544 -0.6276853 0.6276311
0.53575426 -0.28828242 0.039444476 0.34028083 -0.5768478 0.19826601 -0.67037344 0.015994392
-0.10934064 -0.25431272 -0.09554455 -0.011907158 0.44539297 -0.3409647 0.6505881 -0.36353442
-0.45478716 0.5134812 0.5878458 0.6053326 -0.3570977 0.02248155 0.06886061 0.44665062
-0.11032637 -0.04921951 0.2592503 0.3327196 -0.12628856 0.18469954 -0.5699037 -0.66467905
-0.515343 -0.37994918 -0.58747345 0.119239755 0.59888715 0.20662804 0.39195716 -0.69101787
0.59705174 -0.62262595 -0.3505978 -0.6963746 0.6369814 -0.26000527 -0.4811925 0.6228767
-0.02847576 -0.21852946 -0.28594345 0.5701865 0.5206736 0.011473552 -0.024902381 0.4089002
-0.3940844 0.45587954 0.5154904 0.28683972 0.39401606 0.15865473 0.29640606 0.63703233
-0.5438088 -0.6960052 0.7038189 0.6867927 -0.33114213 -0.63295925 0.43426543 0.06364132
00000000: d082 abbe eb66 0dbc 09a0 e43e 46e6 0d3f
00000010: ea77 edbe 2656 84bd 4ca5 1fbf bb73 ab3e
00000020: c9d2 0cbf 5970 12bf 083f 26bf 2687 1ebf
00000030: d091 313f a411 12bf 6f82 f7be 36df 2b3e
00000040: 4a87 893e 25e5 d73d 31bb 94be 75eb 023f
00000050: fa1f 4e3e 1a62 803e 9d2d 11bf 4a1e 203f
00000060: b26a c83e e5f1 0dbf 2a42 203f 6960 a0be
00000070: b500 95be 0f53 0e3f 9144 0c3f b914 29be
00000080: 3567 503b 9ad1 8dbd 3e68 6ebd 37bc 1dbd
00000090: 27b8 923e 69c6 97bd 3ed6 343f 0850 00bf
000000a0: 29b1 05be 7f1a 043f 4b35 2a3f b8b7 9bbe
000000b0: 8582 8abe 42df b53e b1d2 fdbe 3dbe 62be
000000c0: 193a 0a3d ecc2 8abb 0643 5abe 998f dd3e
000000d0: 9db6 343f 0669 813e fcaf 20bf 6fac 203f
000000e0: 3127 093f c199 93be 8890 213d 4a39 ae3e
000000f0: 4cac 13bf 3f06 4b3e 989d 2bbf ac06 833c
00000100: fced dfbd 4735 82be dcac c3bd 3e16 43bc
00000110: 8c0a e43e ed92 aebe f18c 263f 2f21 babe
00000120: ddd9 e8be 8173 033f 107d 163f 14f7 1a3f
00000130: 82d5 b6be 3a2b b83c cb06 8d3d 64af e43e
00000140: cbf2 e1bd 669a 49bd 75bc 843e 395a aa3e
00000150: ca51 01be e021 3d3e 35e5 11bf 6828 2abf
00000160: 85ed 03bf b388 c2be a964 16bf f933 f43d
00000170: ab50 193f 4d96 533e 9cae c83e 8ce6 30bf
00000180: 62d8 183f 6a64 1fbf 8e81 b3be 9b45 32bf
00000190: 3711 233f 691f 85be dd5e f6be d974 1f3f
000001a0: ff45 e9bc 30c6 5fbe 2e67 92be bef7 113f
000001b0: dd4a 053f 91fb 3b3c 1400 ccbc 5e5b d13e
000001c0: 6ec5 c9be 0b69 e93e 2ef7 033f a8dc 923e
000001d0: 79bc c93e 6376 223e 89c2 973e 8d14 233f
000001e0: 0e37 0bbf 662d 32bf 7a2d 343f a5d1 2f3f
000001f0: 768b a9be 9e09 22bf 0a58 de3e 6156 823d

bias f4 [64]
0.37843606 0.64057577 0.55006474 0.42737365 0.6473808 -0.45767555 -0.55340856 0.594348
-0.6216229 -0.6028043 0.42123356 0.2615618 -0.65897983 -0.48430488 -0.08396498 -0.27373278
0.13788913 -0.17826363 -0.18150719 0.4840446 -0.5223622 -0.56972694 -0.5205662 -0.42234823
0.1059785 0.28461003 0.10285693 -0.12263127 -0.41702476 -0.15304615 -0.46517107 0.10274905
0.5492322 -0.2983098 -0.11348026 -0.35257256 -0.15684274 0.44116664 -0.14348187 -0.48452646
0.21416517 -0.09955615 -0.3528397 0.29332116 -0.0026764774 -0.011863809 0.18203928 0.297483
0.0965898 -0.6908595 -0.4030201 0.4796332 -0.22320059 0.66308033 -0.23604165 0.26884717
-0.5508157 0.6569484 -0.3310897 -0.32502228 -0.054443274 0.36491194 -0.3599287 0.23971272
00000000: 5fc2 c13e c6fc 233f 0bd1 0c3f b8d0 da3e
00000010: c0ba 253f 7354 eabe 2fac 0dbf 3127 183f
00000020: ae22 1fbf 6251 1abf edab d73e 6eeb 853e
00000030: e7b2 28bf cff6 f7be d5f5 abbd b426 8cbe
00000040: cf32 0d3e be8a 36be 05dd 39be b2d4 f73e
00000050: 87b9 05bf a0d9 11bf d443 05bf 073e d8be
00000060: 410b d93d 68b8 913e a7a6 d23d 1a26 fbbd
00000070: 4584 d5be 21b8 1cbe e72a eebe 186e d23d
00000080: 7b9a 0c3f 10bc 98be 5768 e8bd 6484 b4be
00000090: 629b 20be 98e0 e13e e9ec 12be da13 f8be
000000a0: 1d4e 5b3e 18e4 cbbd 68a7 b4be 312e 963e
000000b0: d767 2fbb 6c60 42bc 8168 3a3e b14f 983e
000000c0: e0d0 c53d 2bdc 30bf a758 cebe 7c92 f53e
000000d0: b28e 64be a2bf 293f e7b4 71be 56a6 893e
000000e0: 4202 0dbf c52d 283f 9784 a9be 5269 a6be
000000f0: e9ff 5ebd bdd5 ba3e 9348 b8be 4077 753e

weight f4 [32, 1, 1]
-0.5976059 -0.5470894 -0.63952774 -0.020528441 -0.48386014 -0.6089756 0.23842244 0.32735875
0.5686319 0.14726909 0.93050915 0.61894155 0.75599277 0.5420762 0.9825398 -0.67520446
-0.9567826 -0.80995023 0.55469024 0.36373138 -0.7862331 1.0075269 0.4920692 0.70920944
-0.33482942 0.546037 0.64594555 0.19167998 -0.1594273 0.9098685 -0.8031701 -0.8592893
00000000: b3fc 18bf 0d0e 0cbf 17b8 23bf 432b a8bc
00000010: 84bc f7be d3e5 1bbf 0325 743e 919b a73e
00000020: dc91 113f b5cd 163e d935 6e3f f472 1e3f
00000030: be88 413f 81c5 0a3f ba87 7b3f 33da 2cbf
00000040: b4ef 74bf e658 4fbf 2e00 0e3f 003b ba3e
00000050: 9346 49bf a4f6 803f 7ff0 fb3e c08e 353f
00000060: c36e abbe 15c9 0b3f b05c 253f c247 443e
00000070: e940 23be 24ed 683f 8e9c 4dbf 62fa 5bbf

weight f4 [32, 32, 9]
-0.051260214 0.0112594245 0.046837617 -0.018919164 0.003213618 0.011493107 0.039865084 -0.025085822
0.044399876 0.0014370241 0.013331455 -0.021024833 -0.018189352 -0.022016626 0.041627526 0.04302753
0.053092256 0.060361464 -0.04918265 -0.062265806 -0.081345156 -0.094220035 -0.006636207 -0.009013267
-0.023843108 0.015212593 -0.017210241 0.04358889 -0.0025079413 -0.011944118 0.022096783 -0.03880334
-0.04199384 0.036732115 -0.020624379 0.027805097 0.017666962 -0.07409848 -0.01950468 -0.067782685
-0.052710194 -0.06035337 0.028676072 0.09676676 -0.008391608 0.010866035 0.0124420645 0.0026665945
-0.063021354 -0.01316516 -0.020521827 -0.039912052 -0.018932575 -0.036129832 0.014929989 -0.027723674
0.0261232 0.027966348 -0.026525369 0.053258933 -0.018938044 0.0012761276 -0.023574121 0.059696652
0.039625578 -0.014939535 0.03192256 -0.005635359 -0.046847075 0.022355614 0.0187687 -0.011832616
0.012088663 -0.036554895 0.030549452 -0.0401468 -0.06805242 -0.03126721 0.018191556 0.027765883
-0.044680495 -0.003558075 -0.05699703 -0.010445554 -0.04214006 0.024572924 0.009834852 -0.015237582
-0.012693385 -0.036731362 0.058018304 0.011205215 0.05577422 0.07278797 0.0627409 0.039119888
0.02495257 -0.0014481362 -0.057416547 0.018033212 -0.059633452 0.016823309 -0.03768278 -0.049040552
-0.022115227 0.013306853 -0.05652731 0.022145621 0.033060245 0.09096313 0.033402015 0.037330538
0.08069924 0.08927096 -0.012275441 -0.018563122 -0.0049668304 0.047409326 0.030228436 0.049610797
0.056716714 0.05349943 0.036877964 0.060900696 -0.07881629 0.00020450629 -0.001276189 0.051915254
0.017821744 0.025286788 0.042464785 0.0607746 0.0032350807 0.0002811686 -0.07540828 -0.064175345
-0.06977912 -0.02756097 -0.054181702 -0.063923 -0.053332195 0.04042305 0.03324659 0.0107615255
0.02257198 -0.04162482 -0.038675603 -0.048163243 -0.0703397 -0.048067976 0.026430035 0.043037917
0.012592557 0.02221088 -0.034047745 -0.044796742 -0.0502278 0.021553738 -0.034275588 0.046912897
0.03569768 0.030440401 0.026037917 0.020621793 0.020708507 0.06432191 0.037208207 0.07534191
-0.034467608 0.03241382 0.034345865 -0.0070361514 0.044645764 0.008944605 -0.033105124 -0.011884313
-0.032577388 -0.061693683 -0.059410162 0.01477842 0.005303167 0.008510727 0.006869794 0.006125667
0.0065480242 -0.04643811 0.053580217 -0.00036280803 -0.008395153 -0.05318747 -0.024453992 0.027755475
-0.051815215 0.007787749 -0.03676295 0.04308754 0.042797595 -0.0474617 -0.014605946 0.05746745
0.022815567 0.059878226 0.018349046 0.064633146 0.06386974 0.007878677 -0.05462364 -0.010729262
0.045108814 0.0066721006 0.020888772 0.0058071115 0.05423279 0.0072916024 -0.038220834 -0.040542137
0.045214184 -0.006314586 -0.028335951 -0.06061948 -0.053536385 -0.012931566 -0.03102668 -0.0173466
-0.003150863 0.050074898 -0.046900082 0.03595578 -0.0031810647 0.040219583 0.013732048 0.011598002
0.008784378 -0.052713405 0.0044805985 0.07983631 0.053154085 0.0015660432 -0.0058590276 0.06584395
0.047041908 -0.021139612 -0.060067844 -0.037348174 0.039940506 -0.012584105 -0.010394112 0.026498148
0.06538425 -0.0065187253 0.0014546899 0.03308589 -0.036692612 -0.04323575 -0.01531437 -0.060361613
00000000: 3bf6 51bd 7379 383c cdd8 3f3d 5dfc 9abc
00000010: 909b 523b 964d 3c3c 9249 233d c880 cdbc
00000020: a5dc 353d 875a bc3a 2d6c 5a3c 453c acbc
00000030: d601 95bc 365c b4bc a081 2a3d a33d 303d
00000040: 4477 593d 953d 773d bf73 49bd 6e0a 7fbd
00000050: 4a98 a6bd 6ff6 c0bd 8a74 d9bb 62ac 13bc
00000060: 9f52 c3bc 3d3e 793c 7efc 8cbc 448a 323d
00000070: 465c 24bb 43b1 43bc 5004 b53c 40f0 1ebd
00000080: bc01 2cbd 6a74 163d 75f4 a8bc 84c7 e33c
00000090: 4eba 903c f2c0 97bd 47c8 9fbc a6d1 8abd
000000a0: a5e6 57bd 1835 77bd 15ea ea3c a72d c63d
000000b0: f47c 09bc 7407 323c cdd9 4b3c 08c2 2e3b
000000c0: 5711 81bd afb2 57bc 641d a8bc d27a 23bd
000000d0: 7d18 9bbc e0fc 13bd ea9c 743c c21c e3bc
000000e0: 5200 d63c af19 e53c bb4b d9bc 0a26 5a3d
000000f0: f523 9bbc bd43 a73a 841e c1bc 7a84 743d
00000100: 6e4e 223d f4c4 74bc 3bc1 023d d1a8 b8bb
00000110: b8e2 3fbd 1f23 b73c d1c0 993c 97dd 41bc
00000120: 870f 463c 96ba 15bd d842 fa3c f970 24bd
00000130: 115f 8bbd 0c12 00bd 7506 953c 4775 e33c
00000140: e502 37bd 982e 69bb b875 69bd d423 2bbc
00000150: 0e9b 2cbd 284d c93c 5c22 213c 0da7 79bc
00000160: eaf7 4fbc a073 16bd 9aa4 6d3d 1496 373c
00000170: 8273 643d dc11 953d 4d7e 803d 2d3c 203d
00000180: 5569 cc3c 63cf bdba 9d2d 6bbd 63ba 933c
00000190: 3542 74bd 09d1 893c 4259 1abd bfde 48bd
000001a0: fe2a b5bc fd04 5a3c 2e89 67bd bc6a b53c
000001b0: 2e6a 073d e14a ba3d 8dd0 083d e8e7 183d
000001c0: a545 a53d b1d3 b63d ee1e 49bc b011 98bc
000001d0: cbc0 a2bb 4830 423d a0a1 f73c b134 4b3d
000001e0: c94f 683d 3822 5b3d 590d 173d 0273 793d
000001f0: 6f6a a1bd bd70 5639 cc45 a7ba 17a5 543d
00000200: e8fe 913c 3d26 cf3c 8eef 2d3d c9ee 783d
00000210: a603 543b d069 9339 a86f 9abd 5d6e 83bd
00000220: 5be8 8ebd 8bc7 e1bc a2ed 5dbd 10ea 82bd
00000230: dc72 5abd a492 253d 942d 083d 1c51 303c
00000240: dfe8 b83c ca7e 2abd 4f6a 1ebd d246 45bd
00000250: 430e 90bd ede2 44bd cd83 d83c 8748 303d
00000260: 0351 4e3c 97f3 b53c a675 0bbd ca7c 37bd
00000270: aabb 4dbd 7791 b03c 8f64 0cbd bd27 403d
00000280: bb37 123d 265e f93c 784d d53c 09ef a83c
00000290: e3a4 a93c 35bb 833d a267 183d dc4c 9a3d
000002a0: e82d 0dbd 5bc4 043d 40ae 0c3d 848f e6bb
000002b0: 7ade 363d 648c 123c 3d99 07bd 6cb6 42bc
000002c0: de6f 05bd 84b2 7cbd 1258 73bd 3021 723c
000002d0: 30c6 ad3b 9470 0b3c 021c e13b d2b9 c83b
000002e0: cf90 d63b e335 3ebd ee76 5b3d 4537 beb9
000002f0: d38b 09bc 1bdb 59bd bd53 c8bc 735f e33c
00000300: 313c 54bd 6030 ff3b bf94 16bd 8f7c 303d
00000310: 884c 2f3d 3367 42bd c74d 6fbc fd62 6b3d
00000320: b6e7 ba3c df42 753d bd50 963c 625e 843d
00000330: 23ce 823d 9115 013c 0abd 5fbd c9c9 2fbc
00000340: 05c4 383d a3a1 da3b ee1e ab3c 9549 be3b
00000350: 3423 5e3d 65ee ee3b 738d 1cbd 830f 26bd
00000360: 8232 393d 96ea cebb cc20 e8bc 224c 78bd
00000370: f848 5bbd ebde 53bc aa2b febc 751a 8ebc
00000380: b67e 4ebb 561b 4d3d 4d1a 40bd 5e46 133d
00000390: 6979 50bb 4abd 243d 62fc 603c 8c05 3e3c
000003a0: 5aec 0f3c 03ea 57bd fcd1 923b 3881 a33d
000003b0: 19b8 593d b143 cd3a 16fd bfbb 31d9 863d
000003c0: 04af 403d fb2c adbc b309 76bd 66fa 18bd
000003d0: a898 233d 902d 4ebc 114c 2abc a512 d93c
000003e0: 2de8 853d 089b d5bb 4bab be3a 1285 073d
000003f0: fe4a 16bd f817 31bd 20e9 7abc bd3d 77bd

bias f4 [32]
0.046083782 0.026413504 0.006341344 0.014669706 -0.022076279 -0.04530113 0.010612854 0.029142749
0.040139567 -0.010250113 0.038815103 0.056840777 -0.046560507 -0.048602752 -0.003341409 0.0019454618
-0.03497857 -0.0396197 0.0094710775 -0.046388805 -0.052319776 0.05923228 0.036390204 0.006862121
-0.036988746 -0.058817733 0.042324077 -0.018122042 0.0124629345 0.04809656 -0.0007257942 0.059190426
00000000: 59c2 3c3d 2261 d83c 0dcb cf3b 3559 703c
00000010: 50d9 b4bc ad8d 39bd 89e1 2d3c c6bc ee3c
00000020: 6369 243d 17f0 27bc 96fc 1e3d e0d1 683d
00000030: 3bb6 3ebd ae13 47bd 8afb 5abb defe fe3a
00000040: b045 0fbd 4448 22bd 942c 1b3c 3002 3ebd
00000050: 434d 56bd 8c9d 723d e50d 153d a5db e03b
00000060: 8381 17bd ddea 70bd 035c 2d3d ad74 94bc
00000070: 5631 4c3c e600 453d 3943 3eba a971 723d

weight f4 [64, 2]
-0.6573301 -0.47767517 -0.35845834 0.6223231 -0.45504552 -0.29291183 -0.6877702 -0.022354098
0.059566226 -0.57689166 0.34628 0.164523 0.22398706 0.6621322 0.28553453 -0.044196535
0.0028152408 -0.4360281 -0.19327559 0.6564413 0.5357247 -0.17224337 0.5340096 -0.3001256
-0.5969673 0.20221509 -0.41428313 -0.088128805 -0.17817892 -0.4248661 -0.16738662 0.15161191
-0.4323346 0.5676091 0.03292158 -0.6463735 -0.48097882 -0.6772276 -0.6167484 -0.3862595
0.2684294 -0.26245728 -0.6416268 0.28155106 -0.5894911 -0.6979864 0.036349297 -0.5803448
-0.34551042 0.2985905 0.5422209 0.014384466 -0.41807398 -0.656442 0.5675027 0.5248277
-0.10932614 -0.09234686 0.32108405 0.43955454 0.6629641 -0.19821933 -0.4973437 -0.3504807
-0.2963204 0.5034459 0.28866443 0.06547007 -0.26959693 0.021240916 0.42093432 -0.24580817
-0.38924798 0.41891858 0.08915053 -0.24336559 -0.18720475 -0.046214018 0.014978316 0.6008641
-0.54313016 -0.11008841 0.11054098 -0.20034488 0.008463508 -0.107965305 0.54131454 0.68228996
-0.66532195 0.118572064 -0.03638099 0.69660413 0.6666139 -0.69457424 -0.25172636 0.6280607
0.49841085 -0.3627333 0.41928214 -0.59968036 0.66443914 -0.25503471 0.16726726 -0.41529524
0.45618266 -0.5218916 0.68554765 -0.26216453 -0.1415727 0.61591905 -0.49607286 -0.5806534
-0.2309412 -0.05352692 -0.43030912 -0.5764978 0.70265675 -0.27454776 0.17911585 -0.15612414
0.16841172 0.2889248 0.0027698067 0.3658042 -0.6152843 -0.0995646 -0.57782257 -0.5714751
00000000: c946 28bf d791 f4be da87 b7be 9150 1f3f
00000010: bafb e8be 8af8 95be b511 30bf f11f b7bc
00000020: b7fb 733d 2caf 13bf 9d4b b13e b878 283e
00000030: dd5c 653e 7f81 293f 9531 923e 6d07 35bd
00000040: e77f 383b 133f dfbe 09ea 45be 890c 283f
00000050: 4125 093f 9160 30be dab4 083f 10aa 99be
00000060: d9d2 18bf 7911 4f3e eb1c d4be e07c b4bd
00000070: 8974 36be 0d88 d9be 6667 2bbe 2740 1b3e
00000080: f65a ddbe d44e 113f c7d8 063d bc78 25bf
00000090: db42 f6be ca5e 2dbf 39e3 1dbf cec3 c5be
000000a0: 946f 893e cd60 86be a741 24bf 7627 903e
000000b0: e4e8 16bf 3daf 32bf 00e3 143d 7a91 14bf
000000c0: bee6 b0be dbe0 983e fdce 0a3f d3ac 6b3c
000000d0: cb0d d6be 950c 28bf db47 113f 1c5b 063f
000000e0: 62e6 dfbd 5a20 bdbd 2165 a43e 4b0d e13e
000000f0: 04b8 293f 02fa 4abe d5a3 febe 3572 b3be
00000100: 4fb7 97be d5e1 003f d3cb 933e 2c15 863d
00000110: 9c08 8abe 6e01 ae3c b484 d73e 23b5 7bbe
00000120: 834b c7be 7f7c d63e 8e94 b63d d434 79be
00000130: 9ab2 3fbe e94a 3dbd 9c67 753c 3bd2 193f
00000140: 940a 0bbf 0876 e1bd 4f63 e23d 3527 4dbe
00000150: 87aa 0a3c ea1c ddbd 9793 0a3f 8eaa 2e3f
00000160: 8a52 2abf e9d5 f23d 3c04 15bd a654 323f
00000170: 35a7 2a3f 9ecf 31bf 47e2 80be 96c8 203f
00000180: b52f ff3e 2eb8 b9be 26ac d63e a784 19bf
00000190: af18 2a3f e993 82be 1c48 2b3e 94a1 d4be
000001a0: c690 e93e b09a 05bf 0d80 2f3f 6e3a 86be
000001b0: 6ff8 10be dfac 1d3f 43fd fdbe b4a5 14bf
000001c0: da7b 6cbe 0b3f 5bbd 7a51 dcbe 5c95 13bf
000001d0: 50e1 333f 8691 8cbe 256a 373e 02df 1fbe
000001e0: 1f74 2c3e f4ed 933e a585 353b b04a bb3e
000001f0: 4683 1dbf 86e8 cbbd 2eec 13bf 314c 12bf

bias f4 [64]
0.32061112 -0.32365242 0.2344742 -0.46519312 0.40543595 0.64643544 0.47057125 -0.55122656
0.063057944 -0.6575643 0.027413368 0.013386223 -0.60989684 0.0966891 0.6265042 -0.42506677
-0.66603833 -0.44623587 0.15589711 -0.024148196 0.46913162 -0.48938957 0.46352157 -0.14800003
0.29241535 0.48307475 0.6484586 0.32882622 -0.47427553 -0.44744334 -0.3843325 -0.72218585
0.43675974 -0.066629305 0.691613 -0.29842854 0.2820777 0.46413478 0.34921652 0.38173658
-0.47529572 -0.26452485 -0.60209346 -0.68463105 -0.5056265 0.32400832 -0.60208267 0.570137
-0.50355273 0.433506 -0.040709037 -0.5829902 -0.69177914 -0.30214357 0.15008634 -0.025811246
-0.17199537 0.03372006 -0.12855469 -0.3765961 0.49859247 0.6882667 -0.66645265 -0.6768125
00000000: 2427 a43e c5b5 a5be 011a 703e cb2d eebe
00000010: 4d95 cf3e cb7c 253f b7ee f03e 2f1d 0dbf
00000020: 8624 813d 2256 28bf 0092 e03c e451 5b3c
00000030: 3322 1cbf ef04 c63d 9462 203f 5aa2 d9be
00000040: 7d81 2abf 0779 e4be 7ea3 1f3e 70d2 c5bc
00000050: 0532 f03e 4591 fabe b352 ed3e 528d 17be
00000060: 77b7 953e 9355 f73e 6201 263f e95b a83e
00000070: 3ed4 f2be 4b17 e5be 3bc7 c4be 2ce1 38bf
00000080: f99e df3e f274 88bd 8d0d 313f a0cb 98be
00000090: 7d6c 903e 13a3 ed3e 82cc b23e fa72 c33e
000000a0: f659 f3be cd6f 87be cc22 1abf fb43 2fbf
000000b0: bd70 01bf 6be4 a53e 1722 1abf 80f4 113f
000000c0: d5e8 00bf 80f4 dd3e 85be 26bd d93e 15bf
000000d0: 7018 31bf 90b2 9abe 3cb0 193e 1b72 d3bc
000000e0: 8e1f 30be 0c1e 0a3d d7a3 03be 34d1 c0be
000000f0: 8347 ff3e 3f32 303f a49c 2abf 9643 2dbf

weight f4 [32, 32, 1]
0.018636461 0.13412596 0.05357636 -0.16296244 -0.0782923 0.14704572 -0.035903085 0.10706614
-0.05291637 -0.013093597 0.17480968 -0.06306398 0.011547976 -0.14837344 0.1460442 -0.17360175
0.016468907 -0.05158076 0.026963452 -0.02144689 0.08195393 0.07819142 0.16028896 0.15429077
-0.09895791 -0.060233045 0.11799743 -0.0041565895 -0.1807619 0.06375949 -0.025103932 -0.009639758
-0.13544822 0.035686553 -0.03146828 0.17203638 -0.06977189 -0.00023585088 -0.16746846 -0.16641694
0.00898059 0.053854644 -0.14337264 -0.13543977 -0.1113328 0.016643602 0.10115025 -0.1461883
-0.10461548 -0.14642519 -0.15123542 0.029731188 0.09684843 -0.018379511 -0.17652094 -0.14182787
-0.13866992 0.16223364 -0.17642526 -0.017574945 0.05650588 0.1284104 -0.058722116 0.0682102
-0.02797486 0.12326814 0.09777486 0.15488696 -0.020731594 0.016127918 0.12220514 -0.113831334
0.029354785 -0.03344338 -0.1813101 0.07854565 0.0090866415 -0.15259022 -0.01881562 -0.007334713
-0.038021263 0.17959228 -0.0456799 0.0010590737 0.036239505 -0.032666158 -0.121053 -0.04889648
0.09968963 0.1569638 -0.036568638 -0.10369235 0.024008004 0.044929564 0.14457971 -0.05480315
-0.15997775 -0.018799484 -0.014437356 -0.06790081 0.23766336 -0.1552416 0.11068595 -0.0055523943
0.064005904 -0.039562453 -0.10611107 0.0864693 -0.0682155 -0.20950677 -0.1510521 -0.1288517
0.1270632 -0.09177408 0.035766263 0.003471631 0.08998879 0.11604522 -0.074633665 -0.08058671
-0.13779846 -0.11718565 0.07446983 -0.11860471 -0.034799546 -0.09116135 0.0704311 0.061305895
-0.009587405 -0.15638691 -0.00869674 0.11903758 -0.06519553 -0.15831164 0.10123225 -0.1764964
-0.07306967 -0.013883311 0.11356951 -0.039700553 -0.03720819 -0.10424157 -0.1728331 -0.012079697
0.15394308 0.12243436 -0.009535684 0.14009629 0.061161697 0.06394156 0.100014165 0.16139436
-0.10390291 -0.069685854 -0.1709734 -0.16526665 -0.06296696 0.057114065 -0.022171518 0.09489297
-0.18023878 0.10933858 -0.05184651 -0.16713747 0.061599318 0.11596758 0.094711974 0.13218758
0.12868291 -0.13816638 0.1899861 -0.14354838 0.20307812 0.0743495 0.19125992 -0.17401084
0.044336338 -0.13534084 -0.023846613 -0.15201983 0.14057927 0.14480512 -0.03471498 -0.0756112
-0.11787278 0.16393702 0.05343691 0.0646611 -0.16486514 -0.11411201 0.14293593 -0.16140078
0.034610733 0.14443894 0.10277051 -0.030238653 -0.039028354 0.16137424 -0.157297 0.021087501
0.11478199 0.14207141 -0.04569901 -0.038538132 0.13621762 0.0951192 0.05737659 0.098083206
-0.09779507 0.07194546 -0.096675076 -0.062061146 0.07232679 0.13098009 -0.10180787 0.1095329
-0.07211034 -0.018225392 0.059388805 -0.014717012 -0.06683117 -0.06628398 -0.15819478 0.11818845
-0.040841125 0.036700357 0.009113624 -0.17160302 0.028351182 -0.03256752 0.075721994 -0.018768068
0.0817323 -0.028108886 0.10376881 0.094190426 0.020063581 0.119375356 -0.0664473 -0.10628518
0.009105679 -0.10220339 -0.10805691 -0.18236917 -0.13714437 -0.07779293 0.0450391 -0.027688872
0.07542286 0.16476999 -0.11334641 0.014928224 -0.10748368 -0.05053919 0.04355064 0.11504729
00000000: 7eab 983c 5158 093e e372 5b3d a0df 26be
00000010: b757 a0bd 2793 163e 1d0f 13bd 7e45 db3d
00000020: d6be 58bd 8786 56bc 4f01 333e b027 81bd
00000030: b933 3d3c 35ef 17be 9c8c 153e a8c4 31be
00000040: cde9 863c 5946 53bd 75e2 dc3c 63b1 afbc
00000050: 76d7 a73d d322 a03d ca22 243e 66fe 1d3e
00000060: 72aa cabd edb6 76bd a3a8 f13d 0034 88bb
00000070: a619 39be 5694 823d c3a6 cdbc 13f0 1dbc
00000080: f0b2 0abe 102c 123d e2e4 00bd 4e2a 303e
00000090: 91e4 8ebd bd4e 77b9 da7c 2bbe 3469 2abe
000000a0: 5323 133c b096 5c3d 47d0 12be b9b0 0abe
000000b0: 7302 e4bd 2a58 883c dd27 cf3d 63b2 15be
000000c0: a440 d6bd 7cf0 15be 75dd 1abe d28e f33c
000000d0: 7858 c63d a190 96bc e8c1 34be 533b 11be
000000e0: 7dff 0dbe 9320 263e d3a8 34be 55f9 8fbc
000000f0: b672 673d 047e 033e 9a86 70bd cab1 8b3d
00000100: 892b e5bc 0274 fc3d 303e c83d b09a 1e3e
00000110: 4ed5 a9bc b21e 843c b046 fa3d 6720 e9bd
00000120: 7279 f03c edfb 08bd 5ba9 39be 8bdc a03d
00000130: 23e0 143c 9c40 1cbe 3723 9abc 0858 f0bb
00000140: 2fbc 1bbd 0ae7 373e d91a 3bbd 9ed0 8a3a
00000150: e06f 143d f3cc 05bd a3ea f7bd ad47 48bd
00000160: 142a cc3d 1ebb 203e ffc8 15bd a85c d4bd
00000170: 6fac c43c 1008 383d b40c 143e 4579 60bd
00000180: 35d1 23be 6001 9abc a98a 6cbc 940f 8bbd
00000190: 065e 733e a7f7 1ebe 51af e23d dcf0 b5bb
000001a0: 8715 833d 3d0c 22bd c350 d9bd d116 b13d
000001b0: 91b4 8bbd f188 56be 67ad 1abe b3f1 03be
000001c0: db1c 023e 0df4 bbbd a57f 123d 4e84 633b
000001d0: 0b4c b83d 1ea9 ed3d 89d9 98bd a50a a5bd
000001e0: 0a1b 0dbe 08ff efbd a383 983d 07e7 f2bd
000001f0: f889 0ebd cdb2 babd 2e3e 903d e41b 7b3d
00000200: 7e14 1dbc e423 20be c57c 0ebc fac9 f33d
00000210: 3c85 85bd 721c 22be db52 cf3d 79bb 34be
00000220: 8da5 95bd d476 63bc 2297 e83d 0c9d 22bd
00000230: 9d67 18bd 9b7c d5bd 29fb 30be ece9 45bc
00000240: 41a3 1d3e debe fa3d 8f3b 1cbc 6775 0f3e
00000250: b084 7a3d cbf3 823d 3ad4 cc3d 9044 253e
00000260: 0dcb d4bd 75b7 8ebd a713 2fbe a93b 29be
00000270: d2f4 80bd 70f0 693d 0ba1 b5bc 3f57 c23d
00000280: 8490 38be e8ec df3d 025d 54bd 1626 2bbe
00000290: 914f 7c3d 6980 ed3d 5af8 c13d 2e5c 073e
000002a0: 74c5 033e 7d7b 0dbe b78b 423e 59fe 12be
000002b0: b6f3 4f3e 8d44 983d a4d9 433e e62f 32be
000002c0: 059a 353d ca96 0abe f959 c3bc 16ab 1bbe
000002d0: 03f4 0f3e cb47 143e 4b31 0ebd 0bda 9abd
000002e0: 4967 f1bd 1bdf 273e a9e0 5a3d 0a6d 843d
000002f0: 68d2 28be 8fb3 e9bd cc5d 123e 3f46 25be
00000300: fcc3 0d3d cde7 133e 5879 d23d 0db7 f7bc
00000310: 32dc 1fbd 4a3f 253e 7712 21be b2bf ac3c
00000320: d212 eb3d 2b7b 113e e32e 3bbd 29da 1dbd
00000330: a27c 0b3e dbcd c23d b703 6b3d d9df c83d
00000340: c848 c8bd 2458 933d 95fd c5bd d433 7ebd
00000350: 1120 943d a51f 063e a580 d0bd c952 e03d
00000360: 96ae 93bd 6b4d 95bc ad41 733d 9f1f 71bc
00000370: c8de 88bd e5bf 87bd d0fd 21be c90c f23d
00000380: 0649 27bd 1d53 163d 4f51 153c b4b8 2fbe
00000390: bd40 e83c 8565 05bd 2214 9b3d 7ebf 99bc
000003a0: 4463 a73d 9b44 e6bc be84 d43d e9e6 c03d
000003b0: 615c a43c 117b f43d 8615 88bd 0bac d9bd
000003c0: fc2f 153c 0350 d1bd f14c ddbd fcbe 3abe
000003d0: 936f 0cbe e651 9fbd eb7a 383d c6d3 e2bc
000003e0: 4d77 9a3d 77b9 283e 2a22 e8bd 8295 743c
000003f0: 6720 dcbd 2f02 4fbd 2862 323d ea9d eb3d

weight f4 [32, 32, 9]
0.028755125 -0.038838454 0.025762992 0.039297327 0.019010715 -0.014345736 0.037449922 -0.00026164905
0.026609195 0.014362531 0.035427455 -0.051321324 -0.025549442 0.043923642 0.038643006 -0.034471337
-0.0104223825 0.0062122876 -0.016258707 -0.015529845 0.032272827 0.0306174 -0.007856495 0.0038471723
-0.00057861826 0.041603345 -0.01456832 0.031586073 -0.06297573 -0.024137177 0.039804813 0.0167402
0.008371267 -0.0032542495 -0.012241111 -0.035779968 -0.025499025 -0.04291894 -0.010975816 -0.038698964
0.03792605 -0.04667274 0.041904688 -0.011970951 -0.016074343 -0.038173333 0.008406917 0.020769373
-0.01573079 0.049293038 0.04115499 -0.0009700042 0.003275702 0.031703036 0.045056555 0.027076153
-0.033431128 -0.010674941 0.05858763 -0.04837845 -0.019126441 0.0040644133 0.025285458 0.03329378
-0.034920692 -0.038567383 0.05131122 0.056166306 0.032223694 -0.025832558 -0.007980551 0.026931021
0.03711516 -0.007026885 -0.022580223 0.09657949 -0.037480786 -0.009734744 0.08467894 0.016008446
-0.019357875 0.034702364 -0.009254564 0.015815837 0.058104813 -0.037037484 -0.054870747 0.017686944
-0.0626991 -0.043441538 0.0070095984 0.031499792 -0.026400557 0.0029785591 -0.029166177 -0.045580264
0.034833994 0.064542316 0.005931838 0.042212557 0.004560276 0.016584504 -0.02379727 0.006992936
-0.020913066 0.08154129 0.020370917 -0.04966252 0.051178575 0.04343807 0.023957089 -0.013316588
0.030126687 0.02995911 0.0021327275 -0.020810965 0.010032652 0.027139438 0.017885713 -0.037179172
0.043814447 0.027395159 -0.024132917 0.037632264 0.0605096 -0.021259647 -0.023647618 0.0023380993
-0.011080496 0.021334028 0.0040105707 0.0040032836 -0.03604314 0.002436238 -0.041404903 -0.0012274053
0.015816908 -0.051847525 -0.029614238 0.057705034 0.02180931 0.014627881 -0.031039419 0.053477213
-0.016724514 0.039419886 0.052967634 -0.066233434 -0.067131646 0.028190425 -0.003556487 -0.057598095
-0.0005028845 -0.026632015 0.02136252 -0.041372444 0.050884556 -0.021786263 0.0008052973 0.00066608726
0.022695197 0.03541176 -0.06396147 -0.027897442 -0.0039320234 0.06897468 -0.006057445 -0.0050003035
-0.0007521052 -0.0283376 -0.09317861 0.060211383 0.06241723 0.10101561 0.018403297 -0.033846624
0.0588977 0.0457293 0.066013865 -0.01840474 -0.039780352 0.023981724 -0.044058498 0.055913806
0.03432717 -0.06667191 0.006574804 -0.00422804 0.030971479 -0.1259849 0.0029327658 -0.034755856
-0.03341237 0.055972368 0.080285765 -0.067679405 -0.07209691 -0.015567405 -0.00055961235 0.052294724
-0.039120324 0.01754088 0.0362361 0.068049364 -0.029300643 0.07089332 -0.01979029 0.057795312
0.042397756 -0.03903239 -0.019266916 0.0066850637 -0.034616303 0.024757024 0.05690622 0.032042343
-0.014241232 0.020748157 -0.044712197 0.044786353 -0.08585753 -0.006223376 0.052905448 0.035922036
-0.03385526 0.010991604 -0.032407228 -0.058461446 -0.02950749 0.052169178 -0.05369886 -0.038617875
0.020423952 -0.00096879934 -0.08976833 -0.07145571 -0.0043513775 -0.032673758 -0.008611776 0.038194764
-0.06252523 0.042542353 -0.03375035 0.003655451 -0.018921599 0.020311797 -0.065424025 0.036246415
0.011916121 -0.043852918 -0.00023006262 -0.024786433 -0.005718654 -0.006190802 -0.04026152 0.057736866
00000000: de8f eb3c 1215 1fbd e90c d33c 3cf6 203d
00000010: 5cbc 9b3c 610a 6bbc 1765 193d f12d 89b9
00000020: 87fb d93c d250 6b3c 611c 113d 4f36 52bd
00000030: 104d d1bc 47e9 333d 2148 1e3d d131 0dbd
00000040: a4c2 2abc 7290 cb3b fb30 85bc e470 7ebc
00000050: 8330 043d 57d1 fa3c 87b8 00bc d720 7c3b
00000060: 6aae 17ba 4568 2a3d f6af 6ebc 6660 013d
00000070: 6bf9 80bd 54bb c5bc 5f0a 233d be22 893c
00000080: a327 093c 3f45 55bb f18e 48bc 048e 12bd
00000090: 55e3 d0bc c5cb 2fbd e9d3 33bc ce82 1ebd
000000a0: 5958 1b3d ea2b 3fbd 40a4 2b3d cf21 44bc
000000b0: 57ae 83bc a45b 1cbd 2abd 093c 8824 aa3c
000000c0: dcdd 80bc 7fe7 493d 2392 283d e147 7eba
000000d0: 29ad 563b 0bdb 013d 398d 383d cfce dd3c
000000e0: 14ef 08bd f3e5 2ebc 95f9 6f3d 7b28 46bd
000000f0: 0eaf 9cbc c52e 853b 7323 cf3c 0f5f 083d
00000100: 0009 0fbd d5f8 1dbd b72b 523d a40e 663d
00000110: fefc 033d cd9e d3bc dbc0 02bc 729e dc3c
00000120: 1106 183d c941 e6bb 29fa b8bc 78cb c53d
00000130: 7485 19bd 7a7e 1fbc 276c ad3d 2524 833c
00000140: 6894 9ebc 1124 0e3d 74a0 17bc 3790 813c
00000150: 50ff 6d3d 9eb4 17bd 26c0 60bd 36e4 903c
00000160: 6368 80bd c1ef 31bd c6b0 e53b ed05 013d
00000170: fb45 d8bc ee33 433b e8ed eebc 5fb2 3abd
00000180: 17ae 0e3d c32e 843d dd5f c23b 13e7 2c3d
00000190: 5e6e 953b 3adc 873c 7ef2 c2bc 0025 e53b
000001a0: e151 abbc 1fff a63d e9e0 a63c ed6a 4bbd
000001b0: a0a0 513d 1eec 313d a841 c43c d12d 5abc
000001c0: 3ecc f63c cf6c f53c 3bc5 0b3b c27b aabc
000001d0: fe5f 243c 8753 de3c 0f85 923c 3049 18bd
000001e0: c776 333d d06b e03c 65b2 c5bc 4a24 1a3d
000001f0: ead8 773d b628 aebc a6b8 c1bc cc3a 193b
00000200: f88a 35bc b3c4 ae3c 1b6b 833b fa2d 833b
00000210: f9a1 13bd 4ba9 1f3b 3098 29bd e3e0 a0ba
00000220: 7692 813c 125e 54bd 8f99 f2bc 1d5c 6c3d
00000230: 70a9 b23c c8a9 6f3c 6146 febc ec0a 5b3d
00000240: d901 89bc bf76 213d 97f4 583d 65a5 87bd
00000250: 517c 89bd 9bef e63c f313 69bb fbeb 6bbd
00000260: 02d4 03ba 622b dabc 7400 af3c 2776 29bd
00000270: 536c 503d 1b79 b2bc 961a 533a 5c9c 2e3a
00000280: 47eb b93c ec0b 113d 3bfe 82bd 2d89 e4bc
00000290: 34d8 80bb 9942 8d3d 887d c6bb 96d9 a3bb
000002a0: ed28 45ba 4124 e8bc 6dd4 bebd 36a0 763d
000002b0: 36a9 7f3d 46e1 ce3d 83c2 963c c2a2 0abd
000002c0: b73e 713d a54e 3b3d 4732 873d 8ac5 96bc
000002d0: b9f0 22bd 5275 c43c af76 34bd e005 653d
000002e0: a69a 0c3d 488b 88bd 7471 d73b 5f8b 8abb
000002f0: e6b7 fd3c 3002 01be a533 403b 285c 0ebd
00000300: 69db 08bd 4843 653d dd6c a43d 809b 8abd
00000310: 8ba7 93bd 6e0e 7fbc f3b2 12ba fe32 563d
00000320: a23c 20bd e4b1 8f3c 4e6c 143d 775d 8b3d
00000330: e707 f0bc 8430 913d 3f1f a2bc c7ba 6c3d
00000340: 45a9 2d3d 6de0 1fbd a7d5 9dbc 610e db3b
00000350: d3c9 0dbd 3ecf ca3c 7f16 693d d53e 033d
00000360: 0e54 69bc 0af8 a93c 2324 37bd e571 373d
00000370: 13d6 afbd 76ed cbbb 62b3 583d fc22 133d
00000380: d0ab 0abd 2116 343c 71bd 04bd 4575 6fbd
00000390: b1b9 f1bc 59af 553d 56f3 5bbd c72d 1ebd
000003a0: 2250 a73c 06f7 7dba 75d8 b7bd 5f57 92bd
000003b0: 0096 8ebb ebd4 05bd 6818 0dbc 1d72 1c3d
000003c0: 3a0d 80bd e440 2e3d cf3d 0abd 4a90 6f3b
000003d0: 7801 9bbc ed64 a63c 08fd 85bd 1f77 143d
000003e0: d53b 433c 1e9f 33bd f73c 71b9 eb0c cbbc
000003f0: 8c63 bbbb 36dc cabb 43e9 24bd 7e7d 6c3d

bias f4 [32]
0.055652488 -0.0024281212 0.027344353 -0.009678148 0.0026639744 -0.05157148 -0.0057989825 -0.023178697
0.03326802 0.021796057 -0.055150658 0.018604383 -0.008714003 -0.023641136 0.038033254 -0.011660297
-0.055552494 -0.026246948 -0.028432023 0.051115382 -0.06505658 0.018506013 -0.061323863 -0.04297556
0.03609791 -0.05574175 0.019345257 0.028316034 -0.043118946 -0.0070150015 -0.00085866515 0.014952199
00000000: ddf3 633d 1d21 1fbb 4401 e03c 1891 1ebc
00000010: 1396 2e3b 9e3c 53bd 6405 bebb 40e1 bdbc
00000020: 0c44 083d a58d b23c a8e5 61bd 3868 983c
00000030: 2dc5 0ebc 0eab c1bc c2c8 1b3d d50a 3fbc
00000040: 038b 63bd d703 d7bc 46ea e8bc 5d5e 513d
00000050: 623c 85bd ec99 973c bb2e 7bbd 2407 30bd
00000060: 67db 133d 7651 64bd f279 9e3c 07f7 e73c
00000070: 7e9d 30bd 19de e5bb 0b18 61ba 11fa 743c

weight f4 [64, 2]
0.2816813 -0.31728265 -0.42777205 -0.03870168 0.15920635 -0.31555447 -0.4249803 -0.06020829
0.59527266 -0.5199269 0.019720932 0.687332 0.020191796 0.65733975 -0.37940338 0.64464635
0.54005903 0.15982768 0.42745805 0.16765417 0.5782712 -0.003365763 -0.18583894 0.48427808
-0.31612217 0.58427805 -0.19808167 -0.15094945 -0.49805418 0.3288583 0.6664171 0.2464988
-0.38355452 -0.067213856 0.36054394 0.6535881 -0.10418768 -0.122102365 -0.41825774 -0.6905274
-0.50063246 -0.6294264 0.15911412 -0.61361855 0.54862696 -0.24924229 0.62482667 0.067000255
0.2205424 0.51244533 -0.47241423 0.26055273 -0.5359104 0.12692885 -0.2583112 0.40417123
0.46624935 0.5138387 -0.34493056 0.1078011 0.5906984 0.5084475 0.29003656 0.5401354
-0.15728496 0.26372615 -0.3287878 -0.09516674 -0.40614498 -0.42472306 -0.45698115 0.6122034
0.36511907 -0.49960518 -0.25233325 -0.30747044 0.029046848 0.1887571 0.36109075 -0.25635096
0.55018437 0.08837469 -0.019209774 -0.34752142 -0.0483072 0.64034784 -0.253401 0.3512439
0.026730206 0.083740816 0.041479327 0.34165877 0.10702635 -0.26291287 0.6756891 -0.059208315
0.27779704 0.63926035 0.5896208 -0.29840863 0.6710862 0.45702955 0.3383517 -0.19702058
0.36790532 0.015445387 0.45283544 0.21628751 -0.24222012 0.31681195 -0.3052472 -0.5218317
0.20051801 0.3256095 -0.37906623 -0.42944485 0.36265332 -0.53556794 0.6627783 -0.09305821
-0.29637393 -0.2508754 0.5600361 0.51226544 0.42643532 -0.14460306 -0.12627803 -0.21996592
00000000: 8838 903e df72 a2be f004 dbbe a785 1ebd
00000010: fd06 233e 5b90 a1be 0597 d9be f89c 76bd
00000020: ca63 183f ee19 05bf cb8d a13c fdf4 2f3f
00000030: 4469 a53c 6b47 283f 2941 c2be 8b07 253f
00000040: 4f41 0a3f dea9 233e c8db da3e 89ad 2b3e
00000050: 9509 143f 2294 5cbb 904c 3ebe 4cf3 f73e
00000060: c4da a1be 3f93 153f ecd5 4abe 7e92 1abe
00000070: f500 ffbe 1d60 a83e 509a 2a3f 2e6a 7c3e
00000080: 4261 c4be 6ba7 89bd 3799 b83e 8d51 273f
00000090: 5a60 d5bd ce10 fabd e125 d6be 67c6 30bf
000000a0: 7329 00bf 1722 21bf d0ee 223e 1b16 1dbf
000000b0: d172 0c3f 5f39 7fbe a4f4 1f3f 6e37 893d
000000c0: ded5 613e 9e2f 033f 47e0 f1be 2b67 853e
000000d0: 6d31 09bf a3f9 013e 5e41 84be 88ef ce3e
000000e0: 3cb8 ee3e ef8a 033f bd9a b0be d3c6 dc3d
000000f0: 0338 173f 9e29 023f ac7f 943e 5046 0a3f
00000100: 4f0f 21be 1d07 873e e056 a8be c8e6 c2bd
00000110: 3cf2 cfbe 4d75 d9be 6ff9 e9be 5db9 1c3f
00000120: e3f0 ba3e 40cc ffbe d331 81be c46c 9dbe
00000130: a8f3 ed3c 8b49 413e e3e0 b83e 6f40 83be
00000140: e2d8 0c3f cafd b43d d15d 9dbc 54ee b1be
00000150: c5dd 45bd d6ed 233f c7bd 81be 3ed6 b33e
00000160: 4ef9 da3c 4e80 ab3d 3ae6 293d e6ed ae3e
00000170: a230 db3d 849c 86be f6f9 2c3f 6b84 72bd
00000180: 6a3b 8e3e 91a6 233f 64f1 163f 04c9 98be
00000190: 4ecc 2b3f c7ff e93e 6f3c ad3e c3bf 49be
000001a0: 165e bc3e a60e 7d3c 0cda e73e 797a 5d3e
000001b0: 8d08 78be 2d35 a23e 5c49 9cbe c396 05bf
000001c0: 9854 4d3e 4ab6 a63e f814 c2be 32e0 dbbe
000001d0: b2ad b93e fb1a 09bf d7ab 293f 4e95 bebd
000001e0: 53be 97be be72 80be 875e 0f3f d423 033f
000001f0: bb55 da3e d312 14be 074f 01be bf3e 61be

bias f4 [64]
0.24861193 -0.24404661 0.4868943 -0.14044051 -0.0045964853 -0.34137493 -0.43901637 0.47217253
0.6014861 -0.56475335 -0.049673237 0.0950303 0.07098275 0.57122236 0.6778948 0.40717438
-0.083312675 0.67686325 0.032965865 -0.2352007 0.0965687 -0.6474954 -0.5414448 -0.13906401
0.38044482 -0.10276428 -0.65371376 0.6862436 -0.43565637 -0.18954486 -0.2919785 -0.13376558
-0.36373603 -0.58221555 -0.3378294 0.3163416 -0.2713984 0.296555 0.043393232 -0.7002694
-0.4228051 0.032475077 -0.34153917 0.3430287 -0.071892396 -0.23773211 -0.27140817 -0.5291801
-0.39257947 -0.2936097 -0.45489627 0.18509077 -0.023160027 0.08363205 -0.043699138 0.38800332
-0.29987997 -0.6864523 0.118823245 0.12670593 0.18144639 0.5874599 0.49252847 -0.28792948
00000000: 2094 7e3e 5be7 79be 364a f93e a3cf 0fbe
00000010: 1d9e 96bb b2c8 aebe c1c6 e0be 99c0 f13e
00000020: fefa 193f ad93 10bf 2a76 4bbd 3f9f c23d
00000030: 675f 913d a13b 123f 838a 2d3f 2979 d03e
00000040: d69f aabd e946 2d3f 3707 073d 74d8 70be
00000050: d0c5 c53d 42c2 25bf 209c 0abf cc66 0ebe
00000060: aac9 c23e 1476 d2bd c959 27bf a9ad 2f3f
00000070: 5a0e dfbe 0c18 42be 357e 95be d8f9 08be
00000080: 9c3b babe 140c 15bf faf7 acbe 87f7 a13e
00000090: bbf4 8abe 0fd6 973e 1abd 313d db44 33bf
000000a0: e979 d8be 9604 053d 39de aebe 75a1 af3e
000000b0: 523c 93bd 0c70 73be 03f6 8abe 5978 07bf
000000c0: 2d00 c9be 0354 96be 2ae8 e8be 6f88 3d3e
000000d0: 19ba bdbc 4847 ab3d defd 32bd 5fa8 c63e
000000e0: de89 99be 57bb 2fbf 9a59 f33d 33bf 013e
000000f0: 15cd 393e c663 163f b12c fc3e 7e6b 93be

weight f4 [32, 32, 1]
-0.09503088 0.15061516 0.17510481 -0.15591978 0.0011616605 0.011543073 0.115328245 -0.15022792
0.051768303 0.14935549 0.1951245 0.157612 -0.018369475 0.1887828 0.11888809 -0.07925786
-0.044759773 -0.14525071 -0.20799138 0.013414069 -0.09205948 -0.14670476 0.17332444 0.07731624
-0.15105933 0.13618425 0.12225692 0.02740418 -0.057308085 0.072743654 -0.0037940387 0.15853147
0.103949085 -0.14803529 0.025802203 -0.13587032 -0.0054839216 -0.095796876 -0.011054261 0.10385588
-0.0016092263 0.04138365 -0.04198248 -0.053722005 0.16340835 -0.08538788 0.019007571 0.036351595
-0.15905103 0.1003983 0.03824618 -0.040795088 0.13659778 0.086652115 0.12194244 -0.16724744
0.11090802 0.018336993 0.02123281 0.18202798 0.009347103 -0.16220294 -0.08915951 -0.09390173
-0.089001395 -0.053081397 -0.05154595 -0.13438568 0.08493122 -0.15998802 -0.12932387 -0.018076083
-0.10177094 -0.16335286 -0.040417813 0.033565164 0.17193627 -0.074015826 -0.12362405 0.15460221
0.1661945 0.12151352 0.16340816 0.13236867 0.15086006 -0.0063702394 -0.04627758 0.002521073
-0.0510194 -0.08588175 0.08109799 -0.042357143 0.0098832995 0.13504739 -0.0069655096 -0.07607467
-0.038069673 0.07085338 -0.05129418 0.029513542 0.121004954 -0.039829835 -0.12353404 0.08208549
0.08094498 0.06489466 -0.12572016 -0.039531574 0.17378832 0.009520762 -0.061204948 0.01868121
-0.018337531 0.13591217 -0.07095972 -0.04796325 0.061747883 0.024921142 -0.16651599 0.008601801
0.022069007 -0.0920673 -0.11378577 0.054927785 0.041719202 0.059902407 0.043422192 -0.016574489
-0.16233999 -0.084256396 0.019785881 -0.15592036 -0.021624777 0.112786755 0.09595014 0.08523018
-0.16236348 -0.056237638 -0.12337665 0.06423772 0.0077380296 0.1634981 -0.18785578 0.11100016
-0.065067865 0.16798155 0.13019586 0.00048347865 0.12128567 -0.1528082 -0.093204536 -0.06902564
-0.05966491 -0.028030515 -0.11059569 -0.1073743 0.13989662 0.025115887 -0.07335691 -0.16157626
-0.10267488 -0.06287611 -0.037893064 -0.10227568 -0.097041436 -0.105683014 0.061625075 0.037773907
-0.15365724 -0.0815135 -0.16399513 -0.09707059 0.12608637 -0.12983483 0.00057471934 0.026737805
-0.13867308 -0.12296343 -0.009213627 -0.14525482 -0.057946097 -0.019313764 0.09597457 -0.114814006
0.12503745 -0.16672562 0.17184332 -0.040918298 0.11153651 -0.04810449 0.052997578 0.092328
0.02598545 0.020898756 0.1250345 -0.11390503 -0.10919392 0.11068939 -0.020829575 0.017560499
0.14002037 0.09306175 -0.12382137 -0.10646522 0.08517557 -0.14850411 0.0116127515 0.006467355
0.1595927 -0.014246333 -0.05907598 0.0013265114 0.031507216 -0.09452347 -0.14604932 0.13902344
-0.09178194 0.1514518 -0.13210523 -0.06849157 -0.17791246 0.08522309 -0.008626385 0.07980534
0.06996308 -0.062402416 0.07972593 -0.16677138 0.038132228 0.17679627 0.022998028 0.07013642
-0.15282601 0.033364758 0.06157154 0.028186956 0.10794459 0.11365896 -0.10012648 0.109910555
0.06511664 -0.16670097 -0.012807149 0.11968954 0.094642825 0.047707487 -0.09083234 -0.15555087
-0.11932803 0.105937116 -0.10521949 0.1323003 0.043215487 -0.0038496149 0.080700494 -0.15469438
00000000: 8d9f c2bd dc3a 1a3e ad4e 333e 6fa9 1fbe
00000010: dc42 983a 281f 3d3c 3731 ec3d 59d5 19be
00000020: 000b 543d a5f0 183e b8ce 473e 0a65 213e
00000030: 957b 96bc 4750 413e 997b f33d f251 a2bd
00000040: 0656 37bd 9abc 14be b1fb 54be afc6 5b3c
00000050: ae89 bcbd c639 16be f67b 313e fa57 9e3d
00000060: 4caf 1abe e273 0b3e d661 fa3d bb7e e03c
00000070: e2bb 6abd a0fa 943d 68a5 78bb 1356 223e
00000080: 42e3 d43d 9096 17be 245f d33c 9721 0bbe
00000090: 78b2 b3bb 2731 c4bd ee1c 35bc 64b2 d43d
000000a0: adec d2ba e781 293d d2f5 2bbd 9b0b 5cbd
000000b0: 8554 273e d7df aebd c4b5 9b3c 69e5 143d
000000c0: 46de 22be a09d cd3d 07a8 1c3d c018 27bd
000000d0: 4ae0 0b3e aa76 b13d f5bc f93d ea42 2bbe
000000e0: be23 e33d 7637 963c 6ef0 ad3c 8b65 3a3e
000000f0: 9724 193c 8718 26be 4399 b6bd 8d4f c0bd
00000100: 5d46 b6bd e16b 59bd d921 53bd 669c 09be
00000110: 6bf0 ad3d e6d3 23be 7a6d 04be 4b14 94bc
00000120: 486d d0bd f945 27be 268d 25bd a07b 093d
00000130: 1010 303e 9c95 97bd 9b2e fdbd 0b50 1e3e
00000140: e42e 2a3e 15dc f83d 7854 273e a78b 073e
00000150: 0f7b 1a3e 71bd d0bb 8f8d 3dbd 9638 253b
00000160: b8f9 50bd c5e2 afbd b416 a63d af7e 2dbd
00000170: 90ed 213c dd49 0a3e ee3e e4bb 09cd 9bbd
00000180: f2ee 1bbd 941b 913d d919 52bd 62c6 f13c
00000190: 72d1 f73d 9c24 23bd 6aff fcbd 701c a83d
000001a0: 7bc6 a53d 7ee7 843d c9bc 00be dceb 21bd
000001b0: 91f5 313e f8fc 1b3c 0ab2 7abd 5609 993c
000001c0: 9738 96bc 8f2c 0b3e 5453 91bd 1d75 44bd
000001d0: 59eb 7c3d 6c27 cc3c 2b83 2abe 91ee 0c3c
000001e0: 10ca b43c c88d bcbd 8408 e9bd f5fb 603d
000001f0: c1e1 2a3d 3a5c 753d 78db 313d 39c7 87bc
00000200: 743c 26be 9e8e acbd 0016 a23c 96a9 1fbe
00000210: 7226 b1bc befc e63d 8281 c43d 298d ae3d
00000220: 9d42 26be 7059 66bd e6ac fcbd 118f 833d
00000230: 4c8f fd3b 0c6c 273e 445d 40be 0d54 e33d
00000240: 4d42 85bd 5b03 2c3e 1052 053e 687b fd39
00000250: 9f64 f83d c179 1cbe 05e2 bebd 515d 8dbd
00000260: 3163 74bd 40a0 e5bc fe7f e2bd 0fe7 dbbd
00000270: 0f41 0f3e d5bf cd3c 263c 96bd 3f74 25be
00000280: 3547 d2bd 31c5 80bd c235 1bbd e975 d1bd
00000290: a9bd c6bd 5670 d8bd 936a 7c3d d0b8 1a3d
000002a0: 5358 1dbe 8df0 a6bd 57ee 27be f2cc c6bd
000002b0: c91c 013e 6cf3 04be c3a8 163a 3e09 db3c
000002c0: 5100 0ebe 40d4 fbbd c1f4 16bc aebd 14be
000002d0: e358 6dbd e637 9ebc 518e c43d 9b23 ebbd
000002e0: d109 003e 1fba 2abe b2f7 2f3e f299 27bd
000002f0: 416d e43d 3709 45bd fd13 593d 7616 bd3d
00000300: 70df d43c de33 ab3c 0b09 003e 0a47 e9bd
00000310: 10a1 dfbd 1eb1 e23d c9a2 aabc 09db 8f3c
00000320: 8061 0f3e 2997 be3d 0f96 fdbd 700a dabd
00000330: 8770 ae3d 7611 18be 6943 3e3c 1bec d33b
00000340: 456c 233e 7469 69bc a8f9 71bd 56de ad3a
00000350: b60d 013d 8595 c1bd f48d 15be 295c 0e3e
00000360: 2bf8 bbbd 2e16 1b3e 9846 07be 4f45 8cbd
00000370: af2e 36be 7289 ae3d ae55 0dbc fb70 a33d
00000380: ce48 8f3d ad99 7fbd 5947 a33d 1ec6 2abe
00000390: 8a30 1c3d 150a 353e 5c66 bc3c afa3 8f3d
000003a0: 6c7e 1cbe 7ca9 083d 7032 7c3d 55e8 e63c
000003b0: 0e12 dd3d 07c6 e83d 1d0f cdbd c918 e13d
000003c0: df5b 853d a9b3 2abe 14d5 51bc ca1f f53d
000003d0: 19d4 c13d ed68 433d 4e06 babd ba48 1fbe
000003e0: 4162 f4bd 8ff5 d83d 517d d7bd bb79 073e
000003f0: b902 313d d249 7cbb 4d46 a53d 3468 1ebe
